…
       -3.85827859e+02, -3.85820513e+02, -3.85819568e+02, -3.85859969e+02]), array([1, 1, 1, 1, 1, 1, 1, 1, 1, 1, 1, 1])), (array([ 2.97674286e+00,  7.03057143e+01, -2.59271429e-01,  2.23285714e-02,
        2.81628571e-01,  1.01687567e+03,  1.41121286e-01,  2.89358571e+01,
       -4.38610121e+02, -4.38602495e+02, -4.38601551e+02, -4.38642571e+02]), array([7, 7, 7, 7, 7, 7, 7, 7, 7, 7, 7, 7]))]
Total size = 133,885 | train size = 107,108 | val size = 13,388 | test size = 13,389
Fitting scaler
Building model 0
MoleculeModel(
  (encoder): MPN(
    (encoder): MPNEncoder(
      (dropout_layer): Dropout(p=0.0, inplace=False)
      (act_func): ReLU()
      (W_i): Linear(in_features=133, out_features=300, bias=False)
      (W_h): Linear(in_features=314, out_features=300, bias=False)
      (W_o): Linear(in_features=433, out_features=300, bias=True)
      (gather_op1): Sequential(
        (0): Linear(in_features=433, out_features=300, bias=True)
        (1): Dropout(p=0.0, inplace=False)
        (2): Sigmoid()
      )
      (gather_op2): Sequential(
        (0): Linear(in_features=433, out_features=300, bias=True)
        (1): Dropout(p=0.0, inplace=False)
      )
    )
  )
  (ffn): Sequential(
    (0): Dropout(p=0.0, inplace=False)
    (1): Linear(in_features=300, out_features=300, bias=True)
    (2): ReLU()
    (3): Dropout(p=0.0, inplace=False)
    (4): Linear(in_features=300, out_features=12, bias=True)
  )
)
Number of parameters = 618,612
Moving model to cuda
Epoch 0
Loss = 7.4784e+01, PNorm = 43.3794, GNorm = 91803.5742, lr_0 = 1.0210e-04
Loss = 8.2372e+00, PNorm = 43.3791, GNorm = 39208.0449, lr_0 = 1.0420e-04
Loss = 3.7796e+00, PNorm = 43.3785, GNorm = 19574.7361, lr_0 = 1.0630e-04
Loss = 1.7925e+00, PNorm = 43.3783, GNorm = 29136.9467, lr_0 = 1.0840e-04
…
       -3.85827859e+02, -3.85820513e+02, -3.85819568e+02, -3.85859969e+02]), array([1, 1, 1, 1, 1, 1, 1, 1, 1, 1, 1, 1])), (array([ 2.97674286e+00,  7.03057143e+01, -2.59271429e-01,  2.23285714e-02,
        2.81628571e-01,  1.01687567e+03,  1.41121286e-01,  2.89358571e+01,
       -4.38610121e+02, -4.38602495e+02, -4.38601551e+02, -4.38642571e+02]), array([7, 7, 7, 7, 7, 7, 7, 7, 7, 7, 7, 7]))]
Total size = 133,885 | train size = 107,108 | val size = 13,388 | test size = 13,389
Fitting scaler
Building model 0
MoleculeModel(
  (encoder): MPN(
    (encoder): MPNEncoder(
      (dropout_layer): Dropout(p=0.0, inplace=False)
      (act_func): ReLU()
      (W_i): Linear(in_features=133, out_features=300, bias=False)
      (W_h): Linear(in_features=314, out_features=300, bias=False)
      (W_o): Linear(in_features=433, out_features=300, bias=True)
      (gather_op1): Sequential(
        (0): Linear(in_features=433, out_features=300, bias=True)
        (1): BatchNorm1d(300, eps=1e-05, momentum=0.1, affine=True, track_running_stats=True)
        (2): Dropout(p=0.0, inplace=False)
        (3): Sigmoid()
      )
      (gather_op2): Sequential(
        (0): Linear(in_features=433, out_features=300, bias=True)
        (1): BatchNorm1d(300, eps=1e-05, momentum=0.1, affine=True, track_running_stats=True)
        (2): LeakyReLU(negative_slope=0.01, inplace=True)
        (3): Dropout(p=0.0, inplace=False)
      )
    )
  )
  (ffn): Sequential(
    (0): Dropout(p=0.0, inplace=False)
    (1): Linear(in_features=300, out_features=300, bias=True)
    (2): ReLU()
    (3): Dropout(p=0.0, inplace=False)
    (4): Linear(in_features=300, out_features=12, bias=True)
  )
)
Number of parameters = 619,812
Moving model to cuda
Epoch 0
Loss = 2.0693e-02, PNorm = 43.3473, GNorm = 0.0298, lr_0 = 1.0210e-04
Loss = 1.9781e-02, PNorm = 43.3473, GNorm = 0.0513, lr_0 = 1.0420e-04
Loss = 2.0126e-02, PNorm = 43.3473, GNorm = 0.0919, lr_0 = 1.0630e-04
Loss = 1.9137e-02, PNorm = 43.3473, GNorm = 0.1260, lr_0 = 1.0840e-04
Loss = 1.9347e-02, PNorm = 43.3473, GNorm = 0.0624, lr_0 = 1.1050e-04
…
